week_4/autoencoder.pth (torch, 193543 bytes, 12 tensors)

encoder.0.weight f4 [16, 3, 3, 3]
000000 32 f3 00 3e 08 98 1c 3e 16 e0 09 3e ec fb 11 3e
       0.12592772 0.1529237 0.13464388 0.14256257
000010 3f e3 1b be f7 fc 16 be 3d a7 4f 3c 8e 1a fc 3d
       -0.15223406 -0.14744936 0.01267415 0.123097524
000020 32 10 c0 3d 69 e2 4c 3e 86 b1 3a 3e 3f 47 bf 3d
       0.09378089 0.20008244 0.18231782 0.09339761
000030 1e 86 2d 3e e4 5f ee ba a4 a4 e4 bc 89 56 1e bd
       0.16945693 -0.0018186537 -0.027910538 -0.038656745
000040 13 14 24 be 46 bd 5a bc 46 f0 f1 bd 36 7b b8 3d
       -0.16023283 -0.01335079 -0.11813407 0.090078756
000050 ab 98 20 be a8 14 8d bd 5a 88 b6 3d e8 14 9f 3d
       -0.15683238 -0.068887055 0.08912726 0.077676594
000060 23 50 10 3e 7b 18 d1 3d ad 1d 04 3e e7 b0 d3 3d
       0.1409307 0.102097474 0.12901945 0.10336476
000070 d1 d5 92 3d 5b 65 19 bc 66 5a 3c 3d 09 22 b0 3d
       0.071696885 -0.009362544 0.04598465 0.08600242
000080 d2 33 65 3d ed 5b b3 bb ac 0c 11 3e d5 8c dc 3c
       0.055957623 -0.005473605 0.1416499 0.026922623
000090 ab 25 3e be b2 35 12 3e 57 03 2c be 31 c8 1d bc
       -0.18569057 0.14278296 -0.16798149 -0.009630249
0000a0 aa 7f ab bd b8 cd fc bd d9 20 c7 bd dc 51 9f bd
       -0.08373959 -0.12343925 -0.09723062 -0.07779285
0000b0 8c 55 25 bd 99 fc 45 3e 9f 99 5b 3e eb 43 a8 3d
       -0.040364787 0.1933464 0.2144532 0.08216079
0000c0 ff 48 26 be dc ca 28 bd 68 97 4d bd 18 cb 40 be
       -0.16238783 -0.041209087 -0.05019322 -0.18827474
0000d0 b9 d4 eb 3d 3e 99 6c bb 99 d1 44 3e b7 3f 0e be
       0.11515183 -0.0036102082 0.1922058 -0.13891493
0000e0 fe bc a4 3d 47 aa f6 bd d5 8b 7f bd 09 37 2d 3e
       0.0804386 -0.120441966 -0.062389214 0.16915525
0000f0 6a b9 00 be 11 fa 30 be be 83 56 3d e0 43 06 be
       -0.1257073 -0.17282893 0.052371733 -0.1311183
000100 95 d2 0f 3e 93 09 80 bd 8c b4 d1 3c 6e 68 02 3e
       0.14045174 -0.06251826 0.025598787 0.1273515
000110 92 c5 c7 bc 55 04 1a be bc 20 26 be e5 01 1d 3e
       -0.024386201 -0.15040715 -0.16223425 0.15332754
000120 39 70 d9 bd d3 83 5b 3d ad e9 21 3e c2 d5 8d bd
       -0.10617108 0.053592514 0.15811796 -0.06925537
000130 00 d3 e4 bd 72 f3 13 bd 1d 1e 81 bd b8 e6 4a 3e
       -0.111730576 -0.03612084 -0.06304572 0.19814575
000140 e5 e4 3f 3e f0 c8 b1 3d 93 cc 2c 3e 91 11 36 3e
       0.1873966 0.08680904 0.16874914 0.17780139
000150 bc b1 19 bb 66 b9 26 be 74 f9 df 3d 4c e1 50 3d
       -0.0023451885 -0.16281661 0.10936251 0.05099611
000160 7f 5b bf 3d 2f 2f 04 be 5e 5d 81 3d 00 a9 84 3c
       0.09343623 -0.12908624 0.063166365 0.016193867
000170 d3 5c bc bd 9c bb 29 be 42 9a 0b 3d a5 0e 82 3b
       -0.09197392 -0.16575474 0.03408266 0.003969031
000180 c6 10 13 be e8 d9 17 3d 3e 55 dc 3d 48 f2 94 3d
       -0.14361867 0.037073046 0.10758446 0.07272774
000190 8d d2 00 be 27 00 69 bd d6 1f 23 3e 36 8f cd 3b
       -0.12580319 -0.05688491 0.15930113 0.0062731756
0001a0 df 77 0a be b8 e4 b3 3d b3 b3 06 be 00 77 ca bd
       -0.1352229 0.08783859 -0.13154487 -0.09885979
0001b0 29 9f 0b be 32 42 a9 bd 4c c5 44 3d f6 77 0a 3e
       -0.13634934 -0.08264579 0.04803972 0.13522324
0001c0 fb 7b 2c 3e 4c 85 65 3d f9 0b f7 bd 95 dd 3f 3e
       0.1684417 0.056035325 -0.120628305 0.1873687
0001d0 83 f5 34 3e c7 74 f4 bc c3 b1 5e 3e 78 99 9b 3b
       0.1767178 -0.02984084 0.21747498 0.0047485195
0001e0 54 24 52 3e 99 cc c9 bd 94 60 f1 bd 6b 41 3e 3e
       0.2052167 -0.09853477 -0.11785999 0.18579642
0001f0 27 8d a3 bd a8 bb 42 3d e1 f5 63 3e 3c 9e c9 3d
       -0.07985907 0.047542244 0.22261764 0.09844634
000200 27 b5 06 3e b9 a0 2a 3e c8 26 f2 3c a6 e1 ae 3d
       0.13155042 0.16662873 0.029559508 0.08539133
000210 de af 13 3e b2 f9 3a 3e 81 49 c2 3d e8 98 0e 3e
       0.14422557 0.18259314 0.09486676 0.13925517
000220 49 be b6 bd 06 44 ad bd 12 6d 3d 3e 91 c0 9f 3d
       -0.08923013 -0.0846024 0.18498638 0.07800401
000230 32 1e ce 3d 3e 24 a6 3d b9 55 5a 3e 28 58 06 3e
       0.10064353 0.081123814 0.21321763 0.13119566
000240 03 56 07 3e 9e 2c 92 bd ff b2 41 3e 48 fc 18 bd
       0.13216405 -0.07137416 0.18915938 -0.03734997
000250 41 43 58 3e b5 a1 a7 3d 71 a1 a0 bc c5 69 02 be
       0.21119405 0.0818514 -0.019608231 -0.1273566
000260 2a ce 10 3e c7 8a 1c 3e 78 07 1e bd 0c 96 4a 3d
       0.14141145 0.15287314 -0.03858134 0.049459502
000270 71 83 e0 3c 96 e0 28 be 50 a2 95 3d bb 0f ed 3c
       0.027406426 -0.16491923 0.07306349 0.028938165
000280 30 20 ec bd 50 a7 f2 bd 57 52 3d bd f1 73 80 3d
       -0.11529577 -0.118483186 -0.046221104 0.06272114
000290 15 c5 cb bd 00 3d 61 3e 6f 76 68 3e ae 18 81 3c
       -0.099497 0.21995926 0.22701429 0.015758839
0002a0 4e e5 1c 3e d3 b5 de 3d d7 31 a3 bb 8b 11 60 bd
       0.15321848 0.10874524 -0.0049803066 -0.05470423
0002b0 80 64 fe bd 8c ac 11 be e3 5d 8d bd b9 ee 1d 3e
       -0.124215126 -0.14225978 -0.06902673 0.15423097
0002c0 5c cf 0f 3e 0c 0d fd bc b8 8b cf bd c0 e1 60 3e
       0.14043945 -0.03089001 -0.10134071 0.21961117
0002d0 7d 87 30 be 14 93 ba 3d 19 d2 ea bd 86 0a e0 3d
       -0.17239185 0.09110084 -0.11465854 0.10939507
0002e0 79 bb 58 bd 91 dd 0c be bf db 0e 3e 9e cb 3a 3d
       -0.052913163 -0.13756396 0.13951014 0.04560434
0002f0 0b dd 23 be 08 b4 46 3e 20 af 0f bc 3a fe d9 bd
       -0.1600229 0.19404614 -0.00876978 -0.10644193
000300 25 bd 24 be c6 e6 89 bd 8d 7d f1 bd 23 9b 27 3e
       -0.16087778 -0.0673347 -0.11791525 0.16367774
000310 00 fb 03 3e b5 7b 58 3d a7 93 a0 3d 28 b5 91 bd
       0.12888718 0.05285235 0.078406624 -0.07114631
000320 df 26 3a 3d a7 43 56 3e 5c 74 18 3e f1 e4 b4 3c
       0.045447227 0.20924245 0.14888138 0.022081824
000330 24 99 87 bd f2 f0 f2 3d 04 77 1b 3e 1b 56 3f 3e
       -0.06621006 0.11862363 0.1518212 0.1868519
000340 62 06 89 3c 74 41 02 3e 05 d5 61 3e a7 46 a5 3d
       0.016726676 0.12720281 0.22053917 0.080701165
000350 07 57 3c 3e 4a fc 4b 3e ba 2d 23 be f9 02 e5 3d
       0.18392573 0.1992046 -0.15935412 0.111822076
000360 21 16 89 bd 83 0e 35 3d 9b c9 d8 3d 74 7c 40 3e
       -0.06693674 0.044203293 0.10585328 0.18797475
000370 64 b9 d5 bc 6c 6d 1b be 74 47 27 3d ce 5c a7 3d
       -0.026089378 -0.1517846 0.040839627 0.08171998
000380 9f ca b4 3c 6f 04 2f be b2 b5 12 be 37 06 04 3e
       0.022069274 -0.17091535 -0.14327124 0.12892996
000390 17 df 38 3e bf 89 4e bd c1 77 3b bd 32 09 c5 3d
       0.18053852 -0.050424334 -0.045768503 0.096208945
0003a0 bc 25 86 bd 60 74 00 3e 64 67 70 bd 3d b1 5c bd
       -0.06550166 0.12544394 -0.05869235 -0.053879965
0003b0 0e 75 1c 3e 94 3c f9 bd db 38 0f 3e 26 06 a3 bb
       0.15279028 -0.121697575 0.13986532 -0.004975098
0003c0 5c f3 45 bd ab 71 c3 3d f0 df c6 bd 18 b6 be bd
       -0.04832779 0.09543165 -0.097106814 -0.093120754
0003d0 b0 4b 21 bc b3 a8 2d be fe 80 fc bd e3 1c 5a 3e
       -0.009844705 -0.16958885 -0.12329291 0.21300082
0003e0 42 39 82 bd 7b 7d 2e 3e c6 24 a6 3c 86 5d c3 3c
       -0.06358577 0.17040055 0.020281207 0.023848306
0003f0 c8 0b 27 be 67 ee 29 be 0e a6 4b be 60 a3 0e 3e
       -0.16313088 -0.1659485 -0.19887564 0.1392951

encoder.0.bias f4 [16]
000000 17 d0 64 bd 3c 42 0b bd ff a8 37 3e 4c b9 49 3e
       -0.055862512 -0.033998713 0.1793556 0.19699591
000010 d7 74 e9 bd d0 fc 70 bc 4a ee 37 bc d9 50 3a be
       -0.113992386 -0.014708713 -0.011226246 -0.18194903
000020 1a 73 24 3e 7d 52 3f 3e 82 65 5e 3e 3c 8e ba 3d
       0.16059533 0.1868381 0.2171841 0.0910916
000030 bf 70 89 3d 3d e0 5d 3d ab e8 ff 3d 4a 43 01 3e
       0.06710958 0.05416893 0.1249555 0.12623325

encoder.2.weight f4 [32, 16, 3, 3]
000000 c4 55 92 3d 0e 02 34 bc ab f8 b8 3d 5c 3b 48 bd
       0.07145265 -0.010986818 0.09031805 -0.048884735
000010 97 84 36 3d 98 a2 53 bd 54 2e 51 bd 93 c3 48 bd
       0.04456004 -0.051668733 -0.051069573 -0.04901464
000020 52 e2 de 3d 08 ad 11 be 23 98 d2 bd fe dc f4 bd
       0.10883011 -0.14226162 -0.10282924 -0.119562134
000030 79 56 a1 bc 8e 7e b8 bd 03 b1 e1 bd 59 46 d3 bd
       -0.019694554 -0.090085134 -0.110200904 -0.10316152
000040 b5 b9 b3 bd 40 06 fe 3b 2c 05 89 bd 7d 11 13 3c
       -0.08775655 0.00775221 -0.066904396 0.0089763375
000050 19 68 b0 bd de 64 d3 bd 00 00 7b bd 00 2d c2 bd
       -0.08613605 -0.10321973 -0.061279297 -0.09481239
000060 ab 9d 10 bd 5a 9c 99 bd 4c 48 14 be 4f 2c 67 bd
       -0.035306614 -0.07500525 -0.14480704 -0.05643874
000070 d4 0c be 3c 75 4e 8c 3d 4f a8 a2 bd b5 0d 5d 3d
       0.023199476 0.06850902 -0.079422586 0.05396815
000080 3a 07 c5 bc 3d 16 b7 bd 52 0e f0 bc b5 01 bc bc
       -0.024051297 -0.089397885 -0.029303703 -0.022950033
000090 ea 10 8b 3d a2 d2 0c 3d ba 9d 83 3c bb b4 cb 3d
       0.067903355 0.034380563 0.01606642 0.09946581
0000a0 9c 62 40 bd 74 dc 64 3d f0 d3 90 3d 3a d0 25 bd
       -0.04696904 0.055874303 0.07071674 -0.040481783
0000b0 bf ee d4 3d bc bb 4e bd b0 03 8c 3d a1 b5 88 3d
       0.103971 -0.050472006 0.06836641 0.06675268
0000c0 b5 ea 1e bd b9 c9 81 3d e3 48 3c 3b 59 3e da 3d
       -0.038798053 0.06337304 0.0028729967 0.10656423
0000d0 df 97 56 bd 34 58 a3 3c 72 02 c8 3d c6 ce 54 bd
       -0.05239093 0.01993952 0.097660914 -0.051955007
0000e0 30 32 ae 3d 8b d5 06 3e 96 65 8e 3d 23 e3 de 3d
       0.08505666 0.13167398 0.0695297 0.10883167
0000f0 bb 3c 05 3d 5e ac 31 3d f6 39 8e bc ef 74 1d bd
       0.03252862 0.043377273 -0.017361622 -0.038441595
000100 c2 01 8f 3c e3 86 35 3b 4a e4 0a bc 30 cf f3 3b
       0.017456893 0.0027698807 -0.00847728 0.00744047
000110 fe 66 2f 3c 92 9e 57 3d f5 a9 90 3c 45 bc 9e 3d
       0.010705708 0.05264146 0.017659167 0.07750753
000120 8e b9 6d 3d fc 4f 76 bd c9 1b a2 3c 1e 0e b7 3c
       0.058038287 -0.060134873 0.01978864 0.022345599
000130 5f b0 b5 bc d0 2e 2f bd 7c 01 1b 3d 57 8d 26 bd
       -0.022178827 -0.042769253 0.037843212 -0.040662136
000140 00 b2 86 3d 01 66 05 bc 45 5f fa 3b 56 59 32 bd
       0.065769196 -0.008141995 0.0076407515 -0.04354223
000150 21 31 93 3c 7a eb 70 bd 82 8e b2 3c fd 0f 2d bd
       0.017967762 -0.058818318 0.021796469 -0.042251576
000160 b4 10 e9 bd 54 fb 23 bc 59 ea 11 be 10 62 93 3c
       -0.11380139 -0.010008652 -0.14249553 0.017991096
000170 51 86 fb bd d5 7e 0e be 75 76 28 bd 35 d4 fb bd
       -0.12281478 -0.1391557 -0.041128594 -0.12296335
000180 10 4d 3d bd d3 56 2e bd b9 a7 07 be 18 bf b6 b9
       -0.04621607 -0.04256327 -0.13247575 -0.0003485612
000190 d6 40 52 bd 6a 8b 26 3d c4 4e 4d 3d f6 e7 a0 3b
       -0.051331364 0.0406603 0.050123945 0.0049104644
0001a0 1f d1 80 3c eb e1 36 bd b9 6f 54 3d 36 41 35 bd
       0.015724717 -0.044649046 0.05186436 -0.044251643
0001b0 03 cb 11 bd d0 4c 87 bd 58 ef bd 3d c9 cb 31 3b
       -0.035593998 -0.06606448 0.09274167 0.0027129522
0001c0 0e b1 9d 3d 1f 41 bb bc 82 19 c5 3d 7b c4 20 bd
       0.07699786 -0.0228582 0.09624006 -0.03924988
0001d0 aa 13 8c 3d b3 dc 00 bc a8 c6 3e 3d 2a d9 96 bd
       0.06839688 -0.007865119 0.046576172 -0.073656395
0001e0 4b 58 68 bc 13 40 16 bd 5d 9c ab 3d 69 c4 59 bd
       -0.014181207 -0.0366822 0.08379433 -0.053165827
0001f0 6d a5 75 3d 9d d5 63 bd b9 f0 83 3d 8c ed 4a 3c
       0.059972215 -0.05562364 0.064423986 0.012385737
000200 b1 79 c8 bc 24 38 bd 3d 1a 66 ce 3d a2 35 a7 3d
       -0.02447209 0.092392236 0.10078068 0.081645265
000210 1f d1 8b 3d bc bd 89 3d 43 52 d1 bc 5e 39 52 3d
       0.06826996 0.06725642 -0.02555192 0.05132424
000220 11 55 13 3d 9f 9b 23 3c bb ef c9 bd 48 53 96 bd
       0.035969798 0.009985833 -0.09860178 -0.073401034
000230 47 14 98 bd 9a fa a9 bd 81 00 fb 3c b2 17 bc bd
       -0.074257426 -0.082997516 0.030639889 -0.09184207
000240 e4 ea 8d 3d 68 56 38 bd 35 ee 5a 3d 0d d7 9f 3d
       0.069295675 -0.04500428 0.05344983 0.078046896
000250 a8 a1 5f bb 3b 01 78 bd 14 57 92 bc 57 a2 5f bc
       -0.0034123454 -0.06054805 -0.017863788 -0.013649545
000260 3b 3a 82 bc 4c 74 90 3b a0 6f 20 3e a5 72 79 3c
       -0.015896907 0.004408395 0.15667582 0.015225087
000270 b5 e1 6c bb 66 5b ca 3c b0 d8 64 3d da fe 88 3b
       -0.0036145274 0.024701785 0.05587071 0.0041807713
000280 3d 80 86 3d 75 79 e1 39 8e 46 c8 3c 5f f1 11 3c
       0.06567428 0.00043005837 0.024447706 0.008907645
000290 b4 a4 cf 3c db 7b 13 3d 63 a8 17 3e 4b 9b 18 3e
       0.025347091 0.03600679 0.14810328 0.1490299
0002a0 c5 41 96 3c ef 6b 96 3c 8f 68 31 3e 50 38 b6 3d
       0.018341908 0.018362014 0.17325042 0.088974595
0002b0 92 58 f5 3c 11 ac 0c 3e 5d 2e a9 3b 1b 88 13 3e
       0.02994946 0.13737513 0.0051629976 0.14407389
0002c0 a2 5d 1c 3c 25 6a a6 3d ea 4c 01 3e ac b4 13 3e
       0.009543808 0.08125714 0.12626997 0.1442439
0002d0 44 4a 03 bd 39 46 68 bd 13 82 6d bd 52 b4 b4 bc
       -0.032053247 -0.056707595 -0.057985377 -0.02205864
0002e0 3c 96 c3 bc 46 db c0 3c 2a 6e 9f bd bc 76 48 bd
       -0.023875348 0.023542058 -0.07784684 -0.04894136
0002f0 14 c0 64 3d db 3e b0 3d 1c 49 9f 3d 54 09 55 bc
       0.055847242 0.08605739 0.077776164 -0.013002712
000300 3f c4 01 3d 4b da 53 bd 92 53 7c bc 2f 37 66 3d
       0.031681295 -0.051721852 -0.015400784 0.05620497
000310 0b 4c 60 3d 45 d0 7c 3d 05 eb ed 3d 94 16 5d bc
       0.05476002 0.06172206 0.11617092 -0.013494153
000320 68 d4 8c bc 2e ce 04 3d ac b2 69 3c b2 2e b2 3d
       -0.017191127 0.03242319 0.01426379 0.08700313
000330 1d b7 4c 3d dd d6 b8 3d be 15 f2 3d e3 1e 67 3d
       0.049979318 0.09025357 0.11820553 0.05642594
000340 a7 23 ad bd 64 b4 f2 bc 4b 00 6d 3d 9a 62 8d bd
       -0.08454066 -0.029627033 0.057861608 -0.069035724
000350 cb d9 54 bc ff db 80 bd 30 68 8f bd f0 59 40 3d
       -0.012991379 -0.06291961 -0.07002294 0.04696077
000360 7c 28 81 3c e3 19 01 3d 5c 03 58 3d d6 6e ae 3c
       0.015766375 0.031518828 0.05273758 0.021293085
000370 e8 75 fd 3d 01 6b bc 3d b5 cc 5c bb 80 ad 0d 3e
       0.123760045 0.09200097 -0.003369135 0.13835716
000380 f7 e7 1d bc 50 fa 33 3d b6 aa da 3d a8 ab 96 3d
       -0.009637824 0.04393989 0.10677092 0.073569596
000390 a2 42 2b 3e 9c 0f 2b 3e 59 02 ab 3d 38 81 88 3d
       0.16724637 0.16705173 0.08350057 0.066652715
0003a0 d9 33 b0 3d 68 25 36 3e 55 23 fb 3d 74 9d d0 3d
       0.08603639 0.17787707 0.122625984 0.10186282
0003b0 db 77 ae 3d 9e 89 00 3e 46 78 0c 3e 93 eb 75 3d
       0.08518954 0.12552497 0.13717756 0.060039114
0003c0 71 01 90 3d aa 2c e8 3d d1 ff da 3d 5b b4 b3 3d
       0.07031525 0.11336644 0.10693324 0.087746345
0003d0 69 a3 dd bc 88 74 a5 ba 74 11 f7 3b e4 80 23 3d
       -0.02705546 -0.001262323 0.0075399224 0.03991784
0003e0 0f 3d 62 bd e7 86 57 3c e4 59 e5 b8 9a 52 9f 3d
       -0.05523401 0.013154722 -0.00010936314 0.07779427
0003f0 51 09 76 3d 33 9c b7 3d fc 59 17 3d 5a 8a b3 3c
       0.06006748 0.089653395 0.03695105 0.021916557

encoder.2.bias f4 [32]
000000 f6 6e 5c 3d 6b 10 fb 3d a9 8b e1 3a 88 f7 8c bd
       0.053816758 0.12258991 0.001720776 -0.0688315
000010 9e 15 64 bd a5 d2 a5 3d f5 97 e3 3c 4b 87 e8 bb
       -0.05568468 0.08096818 0.02778242 -0.0070962063
000020 50 52 5a bc 4a 91 9e 3d cb 06 97 3c b1 25 2a 3d
       -0.013325289 0.077425554 0.018435856 0.04153985
000030 a1 69 c9 bb dc b6 3a bd 0e a0 47 3d f5 6f 05 3e
       -0.006146625 -0.045584545 0.048736624 0.1303099
000040 e2 6d 71 bd 17 f7 38 3d 1c a5 ea 3b 13 67 de 3c
       -0.058942683 0.04515752 0.007160796 0.027148759
000050 e4 9f 2b bb 18 a1 9f bd 94 5d 0d bc 07 1d c3 3c
       -0.0026187832 -0.07794398 -0.008628268 0.023817552
000060 cd 05 9b bd 7f b5 23 bd df ce 49 3c be 64 30 bd
       -0.07569466 -0.03996801 0.012317388 -0.043064825
000070 38 0d a0 bd e0 17 a0 3c 58 84 00 bd 46 0e c9 3d
       -0.07815021 0.019542634 -0.031376213 0.098171756

encoder.4.weight f4 [64, 32, 3, 3]
000000 55 53 f5 bc 31 9f 8b 3d d7 95 75 3d cd 99 46 3c
       -0.029946962 0.06817473 0.05995735 0.01212163
000010 90 41 05 3d 8a 5e aa 3c e4 b6 7e 3d 90 39 a8 bc
       0.03253323 0.020797033 0.062186137 -0.02053526
000020 a9 46 48 3d c2 4a ed bd 30 7c fa bd 69 c6 33 bd
       0.04889551 -0.115865245 -0.12230718 -0.04389039
000030 7c da 17 bd 5b 2f 72 bd 87 b9 9f bd d9 21 06 be
       -0.037073597 -0.059127193 -0.077990584 -0.1309885
000040 9b 1b a3 bd e2 7a d2 bc f8 29 4b 3d 51 2a 30 bc
       -0.0796425 -0.02569336 0.04960057 -0.0107522765
000050 c9 75 d4 bc ee ed 96 3d 6b 7b 31 3c fc a3 42 bd
       -0.02593507 0.073696 0.010832648 -0.04751967
000060 d4 6e 84 3d 1c 84 9a 3c 9c 7c f5 3c 4b 95 5b bc
       0.06466451 0.018861823 0.029966645 -0.013402293
000070 23 ba 03 3d b2 e5 60 3d 85 47 91 3d 02 8f 76 3d
       0.032159936 0.054906555 0.070937194 0.060194977
000080 87 54 9e bc 8f bd 61 3d 21 4e 5b 3d 15 a5 1a 3c
       -0.019327415 0.055112418 0.053541306 0.009438773
000090 97 96 33 3d f3 62 bd 3c c2 67 da bb 79 61 29 bc
       0.043844786 0.023118472 -0.006665201 -0.010338181
0000a0 84 31 8f 3c e1 9a 69 3d d6 b9 5d 3d 27 dc 1f 3c
       0.017479666 0.05703247 0.054132305 0.009757078
0000b0 0b 73 8b 3c 26 e9 8c bd fb 25 34 bd 10 0f f5 3c
       0.01702263 -0.06880407 -0.043981533 0.029914409
0000c0 ac 6a 24 bc 6d 14 4d 3d 12 42 1d 3d 14 2b 28 3c
       -0.010035198 0.050068308 0.038393088 0.010264177
0000d0 67 b8 1e 3d 30 d9 fd 3c da 08 df bd 1b 51 d3 bc
       0.03875008 0.030987352 -0.1089036 -0.02579551
0000e0 68 41 8a bc 8a 4b ba bd 66 ff 0d bd 40 50 29 bb
       -0.016876891 -0.09096439 -0.034667395 -0.0025835186
0000f0 f8 e4 b9 bc bc 0f ef bd 6f de c2 bd cc 05 1c bd
       -0.022692189 -0.11672923 -0.09515082 -0.038091466
000100 8b e0 35 3d ae 1c 06 3d 8a 0f a9 3d 13 68 df bb
       0.044403594 0.032742195 0.08254917 -0.0068178265
000110 1e 7f 1b 3d 5f 68 8d 3d fe bb ae 3d df a7 06 bd
       0.037963025 0.06904673 0.085319504 -0.032874938
000120 c1 22 56 bd f8 b3 82 bd df f3 05 bd 89 e2 7d bd
       -0.052279238 -0.063819826 -0.032703277 -0.06198362
000130 8c ae 01 bd a0 49 05 bd 95 0c 84 bd 7f 6c aa bd
       -0.0316606 -0.032540917 -0.06447712 -0.08321475
000140 b7 f3 99 bd 36 b2 77 bd 47 a0 24 3d b3 f4 cc bc
       -0.07517188 -0.06047269 0.040191915 -0.025019025
000150 43 7f 28 3d 5f 95 80 3c 38 4a 88 b9 4a 2f 28 3c
       0.04113699 0.015696226 -0.0002599524 0.010265181
000160 69 47 d9 3d 6c 03 8a bd d6 f7 c2 bc 32 f9 99 3c
       0.106093235 -0.06738934 -0.023799818 0.018795583
000170 fb 1c 51 3d c0 a6 28 bb 80 ca a8 3c 89 3d fa 3a
       0.05105303 -0.0025734156 0.020604372 0.0019091825
000180 50 6e cf bc 69 87 a4 3c 3a d7 19 bd bb 99 34 bd
       -0.025321156 0.0200841 -0.03755877 -0.04409192
000190 5b 71 d5 3c 54 00 25 bd 84 b6 39 3d 0f 67 89 3d
       0.026055029 -0.040283516 0.045340076 0.0670911
0001a0 63 e3 1e bd 03 4a 4a bd c9 67 a0 bc dc b9 11 bd
       -0.03879107 -0.04938699 -0.019580739 -0.03557764
0001b0 80 a8 5b bc 4b 4a 87 3d 80 33 7b 3c 42 69 16 3d
       -0.013406873 0.06605967 0.015332103 0.036721475
0001c0 fd a4 93 3d 7c f8 86 3d 68 38 b5 3a 5b 3c 0d 3c
       0.072092034 0.065903634 0.0013826014 0.008620347
0001d0 16 e0 12 3d d6 6d e5 bc 81 39 e7 bc ad 28 87 3d
       0.035858236 -0.028006475 -0.028225662 0.06599555
0001e0 73 b7 8e 3d 5a 45 43 3d 1e 6f 6b 3d e6 92 75 3c
       0.06968584 0.04767356 0.057479016 0.014988637
0001f0 26 18 f9 ba 03 33 63 3c 53 2c f4 3a 49 43 bb 3c
       -0.0019004389 0.013867143 0.0018628932 0.022859233
000200 ef fc cc 3c 84 2f e1 3c b8 30 8b 3d 53 02 d0 3b
       0.025022952 0.027488478 0.06796402 0.0063479333
000210 ed 46 0e bd 05 32 92 3d cd 2f 80 3d 6f c8 3f 3d
       -0.03473561 0.07138447 0.06259117 0.046822008
000220 c4 42 4c 3d 6d d3 35 bd 37 37 c4 bc 60 6e 85 3d
       0.04986836 -0.044391084 -0.02395211 0.06515193
000230 29 10 f7 bd 14 6e f5 bc cf 05 d5 bb db 42 87 bd
       -0.12063629 -0.029959716 -0.0065009366 -0.066045485
000240 5b c0 56 bd 8a 75 56 3d b4 7c 09 bd 91 35 cc bc
       -0.05242954 0.052358188 -0.03356619 -0.024927886
000250 c6 89 dc 3c 00 e7 dc bb 15 4c 4c 3d 91 f8 91 bb
       0.026921164 -0.0067414045 0.049877245 -0.0044546803
000260 c9 3a 54 3d 30 26 df bd 5b a0 c8 bd 49 aa 8d bd
       0.051813874 -0.108959556 -0.097962104 -0.06917245
000270 29 f7 ee bd df a4 c2 bd 8f b2 ad bd 04 22 1a bd
       -0.11668236 -0.09504103 -0.08481323 -0.037630096
000280 a1 5c 72 bd 27 f7 c7 bc 83 ea b9 bc 44 9a 43 bc
       -0.05917037 -0.024409844 -0.022694832 -0.011938635
000290 a5 c3 26 3d 9b d1 b5 3c e9 cd b5 3b 57 39 ce bb
       0.040713925 0.022194674 0.005548228 -0.0062934565
0002a0 55 35 b3 bc 3e 52 aa 3d 0c 54 84 3c b2 6c a9 bc
       -0.021876017 0.08316468 0.016153358 -0.020681713
0002b0 02 d5 fa 3c 12 51 11 bd ac ee a1 3c 93 fb 63 bc
       0.030619148 -0.035477705 0.019767128 -0.01391496
0002c0 f6 72 e4 3c 27 e4 4d 3d b2 72 a8 3d 68 d3 6c 3d
       0.027886849 0.05026641 0.082250014 0.0578188
0002d0 72 67 8f 3d 51 42 95 bc f9 5a e0 3c ca 3c 27 bc
       0.070021525 -0.018220099 0.02738713 -0.010207364
0002e0 de 4c c8 3c 3a 0b ae 3d 4a 28 d0 3c 09 45 6f 3c
       0.024450716 0.08498235 0.025409836 0.014603862
0002f0 b0 9e 42 3d af 35 44 3c 9c 0c 18 3d 82 47 5f bd
       0.047514617 0.01197569 0.0371214 -0.054511555
000300 5e 88 52 bd c1 f3 c9 3c 30 80 86 ba d5 5c 47 3d
       -0.05139958 0.024652364 -0.0010261592 0.048672516
000310 64 1d 70 3d 69 e6 ac bc 82 2a f4 bc 4a 9f 88 3a
       0.05862178 -0.021105962 -0.029805426 0.0010423448
000320 c9 b4 df ba d1 23 75 3d 78 05 85 bb d4 df 92 bc
       -0.0017067428 0.05984861 -0.00405949 -0.017928995
000330 4a e8 3c 3d 9b a0 66 bd 09 40 03 bc 63 3e 80 3c
       0.046119966 -0.05630551 -0.008010873 0.015654748
000340 c6 49 0b 3d dc c1 26 3c a2 18 f7 bc 95 89 27 3d
       0.034005903 0.010178056 -0.030163113 0.040902693
000350 e9 7b 3e bc 3c 40 09 3d 94 2a af bc 15 cc c3 3b
       -0.011626222 0.033508524 -0.021382608 0.005975256
000360 08 60 80 3d 0f fe 63 3d 44 fd 12 bd 2c e2 9e 3d
       0.062683165 0.05566221 -0.035886064 0.077579826
000370 ae 8d 3e 3d 48 5b 1e 3d 55 a7 94 3d 3d f5 16 3d
       0.046521835 0.03866127 0.072584786 0.03685497
000380 b7 54 34 bb c1 f5 27 bd 19 2d 69 3d f1 d7 3c bd
       -0.0027516314 -0.041005854 0.056927774 -0.046104375
000390 f1 69 0b 3c a2 9f 01 3d 4f 46 d6 3c a0 6e 2b bd
       0.008509145 0.03164638 0.026156573 -0.041853547
0003a0 4b 39 ca 3c 77 56 35 3d 47 07 30 bd 18 70 9d 3c
       0.024685523 0.044271912 -0.04297569 0.01921849
0003b0 3d db f4 3a 55 0c 81 3d b2 fe 22 3d 01 9f 2e 3d
       0.0018681061 0.0630118 0.039793678 0.042632107
0003c0 94 e7 32 bd 8e 56 2b 3d b5 73 6a bd ca 8f 01 bd
       -0.04367788 0.04183059 -0.057239253 -0.03163127
0003d0 1a e8 2b 3c fb 66 82 bc 9a 92 58 3c 7a 84 be 3b
       0.010492349 -0.015918246 0.013218546 0.0058141323
0003e0 51 14 c9 ba c4 ed 5b 3d 2f 7c be 3c 0c 50 ec bc
       -0.0015341138 0.053693548 0.023252575 -0.028846763
0003f0 53 31 05 3c ce 83 bc bc e6 ca 08 bb 65 3b 56 3d
       0.008129436 -0.023012068 -0.002087289 0.052302737

encoder.4.bias f4 [64]
000000 db 40 17 3c 4b 6a 32 3c 90 cc 02 3d e7 d5 f0 3d
       0.009231771 0.0108896 0.031933367 0.11759549
000010 66 ea f6 3a 28 a3 33 bc 40 4a 4d 3d 37 c7 0e bd
       0.0018838167 -0.010964192 0.05011964 -0.034857955
000020 df 34 09 bd 23 75 65 bb d5 9b 2a bd 4a dd 63 bc
       -0.033497687 -0.0035012446 -0.04165252 -0.01390774
000030 60 2c 4b bd 71 f1 56 bc 92 a5 70 bd e3 1d 29 3d
       -0.049602866 -0.013119088 -0.05875165 0.041288268
000040 95 5c 10 3d 6c 63 00 3c de 95 20 3d d4 97 63 bd
       0.035244543 0.007836204 0.039205424 -0.055564716
000050 a1 a2 74 bd 06 52 a5 3c 47 96 0f 3c 45 07 04 3d
       -0.059725408 0.020180713 0.008763856 0.032233495
000060 ef 59 f0 3c 3a fa 72 3d db 88 81 3d a6 79 6a 3c
       0.029339759 0.059320666 0.06324931 0.01431123
000070 6f 1f 43 3d 39 f6 cb bc 8a ac 09 bd 8b 65 18 bc
       0.0476374 -0.024897682 -0.03361181 -0.0093015535
000080 ce b0 d4 3d fc 02 79 bd c8 97 d6 3c 1d e4 22 3c
       0.10385285 -0.06079386 0.026195422 0.009942082
000090 23 d5 d1 3d 0d 9e 77 bd 52 ac b3 3c 1f ac e9 3c
       0.10245731 -0.060453463 0.021932755 0.028524457
0000a0 99 01 5c bc a4 00 2a 3c f6 78 ba bc 95 4f 03 3d
       -0.013428115 0.010376129 -0.022762757 0.032058317
0000b0 47 f6 7f bc 13 f7 e4 3c 79 51 bb 3d d8 25 bb bc
       -0.015622682 0.027949845 0.09146399 -0.022845194
0000c0 a7 19 83 3c d4 e5 e4 bc 84 8a 6d 3d 96 27 12 3d
       0.016003443 -0.027941622 0.057993427 0.035682283
0000d0 53 9b 43 bd ef bf 71 3d 75 c0 31 3d bc a3 68 bc
       -0.04775555 0.059020933 0.043396432 -0.014199194
0000e0 23 77 f4 bc 6a d1 84 bd a6 e0 86 3c d9 a0 66 bd
       -0.029841965 -0.06485255 0.016464543 -0.05630574
0000f0 87 4c 87 bd 14 01 12 bd 6c 57 80 bc da 7c 1c bd
       -0.06606393 -0.03564556 -0.015666686 -0.038205005

decoder.0.weight f4 [64, 32, 3, 3]
000000 99 05 f3 3b 68 db 47 3d 95 2f ee bc 1b c2 92 3d
       0.007416439 0.048793226 -0.029075423 0.07165929
000010 ab 76 2d bb c3 b3 c6 bc bf 08 3d 3d 96 f0 d8 3c
       -0.0026468437 -0.024255639 0.04615092 0.026481908
000020 a8 ff 0b 3d c7 a0 1d bd 8d 88 90 3b 18 3c 61 3c
       0.03417936 -0.038483407 0.0044108094 0.013747238
000030 d7 f8 6e 3d 7a 6c 11 bd 45 dc 46 bc dd 9c 57 bc
       0.05834278 -0.035503842 -0.012137477 -0.013159958
000040 4a 36 4f 3c 04 dd 89 3c c0 e7 1b bd 1c 3f 84 bd
       0.012647221 0.016829021 -0.03806281 -0.0645735
000050 3b c9 6c bd 6a c6 d0 bb 32 12 87 3c 89 fd 4f 3c
       -0.057809096 -0.006371309 0.016488168 0.012694725
000060 9f f3 05 3d 06 1c 2c 3d 1e 32 fe 3b ea 88 24 bd
       0.03270304 0.042018913 0.0077574393 -0.040169634
000070 7a 96 a7 bc b1 99 01 3d fd b3 78 3b bd 49 09 bd
       -0.020457495 0.031640712 0.0037949078 -0.033517588
000080 54 dc 38 bd 9f ff 26 bd ac 4e c5 bc 9d 36 be bc
       -0.045131996 -0.040771123 -0.024085365 -0.023219401
000090 0b 1b 29 bd 66 6f 9a 3c f2 48 05 bb 2f 47 3a 3c
       -0.041285556 0.018851947 -0.0020337668 0.011369511
0000a0 77 f6 e7 bb 3a c4 8c 39 60 43 13 bd 62 68 6d 3d
       -0.0070789414 0.0002684908 -0.035952926 0.057960875
0000b0 f2 97 1b 3d 77 f8 9d 3d d4 48 c9 3d e2 94 9d 3d
       0.037986703 0.077134065 0.09828344 0.07694413
0000c0 fe 41 8c 3d be 2e 98 3d a0 a5 9a 3c 20 ca 45 3d
       0.068485245 0.0743079 0.018877804 0.048288465
0000d0 79 d6 9b 3d 35 a7 4f 3d 7e 86 d1 3c 3f c3 38 3d
       0.07609267 0.05069657 0.025576826 0.045108076
0000e0 cf c4 62 3d 49 d4 a7 bc 49 c3 7c 3d 39 a3 5a 3d
       0.055363473 -0.020486968 0.061709676 0.053378318
0000f0 ef dc a6 bc 79 38 7c 3c 06 7a 5b 3c a1 2b 92 3b
       -0.020369021 0.0153943235 0.013395792 0.0044607674
000100 27 6d 48 bd 6f 7b 10 3d 73 1e ca bc f8 a2 ba 3d
       -0.04893222 0.035273965 -0.024672722 0.09113115
000110 f4 35 d1 3c 8e 63 6b 3d 45 ba 59 bc fa 16 9f 3c
       0.025538422 0.05746799 -0.013289039 0.019420136
000120 ee d4 3e 3c d4 1f 7b 3d 04 3d f9 bb 07 36 4d 3d
       0.011647446 0.06130965 -0.0076061506 0.050100353
000130 44 a3 07 bc 13 d8 32 bc b1 78 1b bc 23 e9 3b 3a
       -0.008278672 -0.010915774 -0.009489224 0.0007168224
000140 38 54 31 3d 48 68 08 bd c7 17 6b 3c 27 ce 45 bd
       0.043293208 -0.033302575 0.014348931 -0.048292305
000150 30 aa 72 3a 0c 00 02 3d 86 13 6e bd fe 05 37 3c
       0.00092569273 0.031738326 -0.058124088 0.011170862
000160 b0 df 1a bc 6b 4b 1f 3b 10 23 6e bd 31 8d e0 3a
       -0.009452745 0.0024306427 -0.058138907 0.0017131922
000170 40 55 27 bd 3e 6e 00 3d ed b9 02 3d 1b 3a d5 ba
       -0.040852785 0.031355135 0.031915594 -0.0016267927
000180 16 31 65 bc 06 ea 75 bd eb b7 11 bd da d1 fa 3c
       -0.013988754 -0.060037635 -0.03557579 0.030617643
000190 c9 81 82 bc 83 36 0a bd f2 28 d2 bc 84 7c 0e bd
       -0.015931027 -0.033743393 -0.02565429 -0.034786716
0001a0 ae 2c 93 3d 27 73 0c 3d b9 45 a1 bc f1 85 32 3d
       0.07186256 0.034289505 -0.019686567 0.043584768
0001b0 99 3f 87 bd 5c f5 c0 3d c2 67 c6 ba a5 27 9a 3d
       -0.06603927 0.094217986 -0.0015137123 0.07527093
0001c0 17 db a7 3d 81 53 a3 3d c6 c7 94 bb 2e 15 cb 3d
       0.08196085 0.079749115 -0.0045404164 0.09916149
0001d0 0a 68 67 b7 97 b4 5f 3c b1 89 e9 3c ec c3 62 bb
       -1.3792896e-05 0.013653896 0.02850804 -0.0034601642
0001e0 f2 d6 b7 3d 3d 91 24 3d e1 90 c6 bc 8b 19 3d 3d
       0.089765444 0.040177573 -0.024239006 0.046166938
0001f0 e0 95 05 3d 63 4b d8 3c 28 d8 80 bc 9b a1 c7 3c
       0.032613635 0.026403135 -0.015728071 0.024369052
000200 de 27 fa bc 7b e5 61 bd a2 8a 8c bd d4 b1 08 ba
       -0.030536588 -0.05515049 -0.068623796 -0.0005214487
000210 42 b4 17 bd df a5 f2 bc 8f 53 61 bd 26 a0 3e bd
       -0.03703714 -0.02962011 -0.05501133 -0.04653945
000220 ed 88 ef 3c 08 c2 a1 bc 5f 29 a4 3c 90 ff 29 bc
       0.029240096 -0.019745842 0.020039259 -0.010375872
000230 b1 f6 93 3d cc 98 29 bd 8d 20 81 bb 52 ed 44 bd
       0.07224787 -0.041405484 -0.003940648 -0.04807789
000240 3f 79 d3 bc 2f 99 50 bd db e8 e7 bc 0b 42 94 bd
       -0.02581465 -0.050927337 -0.028309276 -0.07239159
000250 cd 48 8a 3d e0 7f b8 3a 7d df b3 3c 77 e1 35 bc
       0.06752167 0.0014076196 0.021957153 -0.011101118
000260 00 f8 ac 3c 24 7f bc 3c 46 63 a4 3b 29 d7 80 3d
       0.02111435 0.023009844 0.005016717 0.062910385
000270 c5 46 cf bc 10 ee 65 3d c0 dd 14 3c 30 7e ab 3c
       -0.0253023 0.056135237 0.009086072 0.020934194
000280 64 3c 3c 3d 11 b8 4a 3c b7 bd 82 bd 91 22 69 bd
       0.04595603 0.012372986 -0.063838415 -0.05691773
000290 61 26 b2 bd 94 b3 e0 bc 8a 57 0d bd ec c5 90 bd
       -0.086987264 -0.02742938 -0.034507312 -0.070690006
0002a0 0b cc 82 3d 2c b9 07 bc 50 a5 a1 3d 3d 59 5c bd
       0.06386574 -0.0082838945 0.07892859 -0.05379604
0002b0 7a ce 12 3d b1 0f 27 bd 07 06 62 3b 3b 8b b3 bc
       0.035841443 -0.04078645 0.0034488456 -0.021916976
0002c0 1f 30 81 3c 6c 51 24 3d 40 17 89 3d 41 2f 69 bd
       0.015770016 0.040116712 0.06693888 -0.05692983
0002d0 ac b1 f4 bc 30 be ce 3c 9b bc 72 3c b6 7d 59 3c
       -0.029869877 0.025237173 0.014815475 0.013274601
0002e0 97 89 a3 3c 87 de d5 bc 4e cf e1 3c e3 24 19 3d
       0.019963069 -0.026107086 0.02756467 0.037388694
0002f0 58 ce 82 bc c7 75 0e bd 57 b6 ac 3d 2e e5 4c bc
       -0.015967533 -0.03478029 0.08433216 -0.012505813
000300 5b 1d 27 3d 5c a2 80 3d cc f0 31 3d 97 88 2b 3d
       0.04079948 0.062809676 0.043442532 0.04187831
000310 6d ff 8e 3d ea 30 0d bd 88 7a f0 bc b3 38 6b 3d
       0.06982312 -0.034470476 -0.029355302 0.05742712
000320 dd 47 67 3b 5e 31 ab 3c ee a8 93 3c 83 44 d1 b9
       0.0035290637 0.020897564 0.018024888 -0.00039914632
000330 78 0e 18 3d 18 54 22 bd 41 13 e3 bc 4e 27 f1 bb
       0.037123173 -0.03963098 -0.027719142 -0.007359422
000340 1a 1d c4 3c bf 4b 6c 3d b6 67 2a 3d 4b 74 cc 3d
       0.023939658 0.057689425 0.041602813 0.099831186
000350 80 f0 8f bc 4e cc 9d 3c cc 64 c8 3c 3d 24 88 3d
       -0.017570734 0.01926246 0.024462126 0.06647537
000360 88 fa c0 bc fc 9f e8 bc dc cd 74 3d 66 e1 a7 3d
       -0.023556963 -0.028396599 0.059766635 0.08197288
000370 80 4e 7a 3d 42 57 29 bc d2 55 a1 bd 0e 99 83 bc
       0.06111002 -0.010335745 -0.07877697 -0.016064193
000380 2e be ab 3d 96 37 ce bb d0 7b 31 bc c7 31 28 bb
       0.08385883 -0.0062932475 -0.010832742 -0.0025664435
000390 e9 a6 98 3c 00 bf a9 bc e9 1f 6c 3d ec 00 74 bd
       0.018634276 -0.020720959 0.05764762 -0.05957119
0003a0 b6 6d d1 bc 3f 8a 17 3d 84 de 1a bb 24 64 ce bb
       -0.02556501 0.036997076 -0.0023631165 -0.006298559
0003b0 85 3b 4c bd d3 a0 95 bd 2f 32 40 bd c0 10 12 bd
       -0.04986145 -0.073060654 -0.04692286 -0.035660505
0003c0 a0 fa 60 bd fd 2d 20 3d b2 79 2d 3d 3e 1d 14 bb
       -0.054926515 0.039106358 0.042352386 -0.0022600438
0003d0 2b eb 45 bd 47 99 6e bc e6 0a 88 3d 03 3d dc 3b
       -0.048319977 -0.014562911 0.06642704 0.0067211404
0003e0 f7 11 83 3c 5c a4 05 3d 69 c8 b1 bc 53 3b bb bb
       0.015999777 0.03262745 -0.021702008 -0.005713859
0003f0 d8 d4 6d bc 55 57 9a 3d 68 4f 68 3c 6b 96 ab 3d
       -0.014516078 0.075361885 0.014179088 0.08378299

decoder.0.bias f4 [32]
000000 ab 54 fb bc d5 25 30 3d 6a fe 76 3c 53 97 99 3d
       -0.030680021 0.04300483 0.0150753055 0.07499566
000010 86 8b 3a 3d 36 40 35 3d 24 54 db 3c 5a 58 92 bd
       0.045543216 0.04425069 0.02677352 -0.07145758
000020 e9 87 59 3d 99 0c 38 bc 80 a7 e0 bc f8 53 34 3c
       0.05310813 -0.011233472 -0.02742362 0.011006348
000030 a7 b6 0d bd 49 a2 14 3d 51 6d d9 38 c5 de 82 bd
       -0.03459802 0.03628758 0.00010367728 -0.06390146
000040 bb c1 0d bb f2 9d 73 3d e3 d9 a5 bd af fa 1d 3d
       -0.0021630365 0.0594768 -0.08098199 0.03856915
000050 21 9f 4e 3d 12 47 1b 3d 16 98 43 bd 4c bd 1e 3d
       0.050444726 0.037909575 -0.047752462 0.038754746
000060 90 85 0e 3d d9 2e b7 bc 34 a6 86 3d 94 be 50 bd
       0.034795344 -0.022361206 0.065746695 -0.050963
000070 c0 97 c0 3c 88 b7 fa 3c 9d 8b c0 3d 27 e5 2a 3d
       0.02350986 0.030605093 0.09401629 0.041722443

decoder.2.weight f4 [32, 16, 3, 3]
000000 c4 f1 84 3c e0 e6 1b 3c db fc ba bd b8 74 21 bd
       0.016228564 0.009515494 -0.091302596 -0.039417952
000010 a2 65 92 bb 37 df 93 bd 27 80 5e 3c ec 3b be bd
       -0.004467682 -0.07220309 0.013580359 -0.09288773
000020 06 24 b8 bb d9 91 59 3d 1f dd 10 3d ae ed b3 3c
       -0.0056195287 0.053117607 0.035367128 0.02196392
000030 c0 4e 42 bb 2f 6d 93 ba ee 97 6a bb cc bc 95 3d
       -0.002964899 -0.0011247749 -0.0035796124 0.07311401
000040 f1 48 17 3d fe 4e 2e bd 82 d1 cb bc 9d 16 b8 3d
       0.036934797 -0.0425558 -0.024880175 0.08988688
000050 95 ea 1b bd fa cd 91 3d 0e 38 86 3b 3e 85 71 3d
       -0.03806551 0.07119365 0.0040960377 0.05896496
000060 91 a9 ac 3c 64 85 23 bd b7 8c af 3d 8f 55 71 3d
       0.02107695 -0.039922133 0.08571761 0.058919486
000070 23 5c 04 bd 31 a1 77 3c 8f b0 95 3b c9 d3 96 3d
       -0.03231443 0.015114115 0.0045681666 0.073646136
000080 24 d6 49 bd b0 37 05 3d bb 23 32 bc 31 37 d0 3c
       -0.049276486 0.03252381 -0.010872777 0.025416942
000090 1c 0f a9 bd 2b 33 ab bd 40 71 89 3d a6 98 9f bd
       -0.08254835 -0.08359369 0.06711054 -0.07792787
0000a0 43 a3 e0 bc d8 fd 1d bd 65 74 b5 3b 04 ad 9f bd
       -0.0274216 -0.038572162 0.005537557 -0.07796672
0000b0 ea 2d c2 bd ae 72 95 3c 66 fc 62 3d 1a ef 84 3d
       -0.09481414 0.01824316 0.055416487 0.064909175
0000c0 41 35 88 3d 11 76 25 bd a3 45 bb 3c 53 28 bf 3b
       0.066507824 -0.0403958 0.022860354 0.0058336644
0000d0 7a 3b a9 bd d7 85 4e 3d 6e 06 94 3d 61 a5 ec 3b
       -0.082632974 0.05042061 0.07227789 0.007221863
0000e0 98 79 b5 3c 69 d2 fd 3c 25 ec c6 bc cb 7f 53 bd
       0.022152707 0.03098412 -0.024282524 -0.051635545
0000f0 ac 35 6f 3d 26 4f ab 3d 22 49 ae bd a6 a7 b3 bd
       0.058400795 0.08364706 -0.08510043 -0.08772211
000100 73 32 07 bd 69 ad ce 3c a3 d8 50 bc 0f 80 5e 3c
       -0.033007096 0.025229173 -0.012746963 0.013580336
000110 55 f0 8c bc a0 bf 1c 3d a9 e7 f9 bc 26 aa 49 bd
       -0.017204443 0.038268685 -0.030505972 -0.04923453
000120 fc 7e 97 bd 90 9a b4 3b fa 42 99 bd f9 39 dd bb
       -0.07397267 0.0055115893 -0.07483478 -0.0067512956
000130 ea 24 c1 3c 4f f6 b0 bd 48 ec 56 bc 0b 86 06 bd
       0.023577172 -0.0864073 -0.013117857 -0.032842677
000140 5a 8f a7 bd a1 21 63 bc 56 9d a3 3d 29 b4 87 3d
       -0.08181639 -0.013862998 0.07988994 0.0662616
000150 63 81 54 3d 20 da 6b bc 94 f2 dd bc 7c 2e 4c bd
       0.051881205 -0.014395267 -0.02709321 -0.04984902
000160 84 67 91 3d 8a c7 0c bd 89 c1 19 3b f3 5b 49 bd
       0.07099822 -0.034369983 0.0023461303 -0.049159955
000170 b0 68 7b bd 12 3c 24 3d 0c f1 c7 bc c4 f0 c1 bd
       -0.061379135 0.04009635 -0.024406932 -0.094697505
000180 c8 7b 5b bd 69 48 13 3d 57 d9 39 bd f6 0a f7 3a
       -0.053584844 0.035957728 -0.045373287 0.0018847871
000190 17 a5 4a 3d dc f0 ef 3c 23 3a 24 bd 0c e3 f7 bd
       0.04947385 0.029289655 -0.040094506 -0.12103853
0001a0 de e3 e0 3c 7d 31 d4 bc 36 e1 ea bd f6 b1 a8 3c
       0.027452406 -0.025902504 -0.11468737 0.02059267
0001b0 f1 90 1c 3d 14 fe 28 bd e6 eb f6 3b 0e 6b 69 3d
       0.038224164 -0.041257933 0.0075354455 0.05698686
0001c0 f9 c8 e3 bb 07 4c bd bd f3 7e 8c bd af 88 97 bd
       -0.006951448 -0.09243017 -0.06860151 -0.07399117
0001d0 db 49 e5 bc 6e 1e 16 bd 59 a3 af 3d 26 b4 bf 3c
       -0.027989319 -0.036650114 0.08576078 0.023401331
0001e0 57 cd a5 3d 2a 2b 0c 3e 15 1f f2 bc 64 98 a6 3d
       0.08095806 0.13688341 -0.029555837 0.08134535
0001f0 0f 48 39 bd 2f 6b 55 bd 13 29 4a 3b 09 98 76 bd
       -0.045234736 -0.05210417 0.0030847236 -0.060203586
000200 b2 e2 60 bb b3 3c 4d bd 84 9a af bc 49 58 0b 3d
       -0.0034314808 -0.050106715 -0.021435983 0.034019742
000210 e0 02 fc bc 35 e1 cc bd f7 8e b7 bd 67 3f 3f bd
       -0.03076309 -0.10003892 -0.08962815 -0.046691325
000220 d6 d3 64 bd 64 02 5c 3d 29 82 d5 3d 0d 73 52 3d
       -0.055866085 0.053713217 0.10425217 0.051379252
000230 a9 76 c4 3c 6e 00 6f 3b 0d 20 5d 3d 02 f8 4f 3d
       0.023982363 0.0036468762 0.053985644 0.050773628
000240 ec 8e f4 bc f0 a2 8a bc 84 ef 02 3d da 37 8c 3d
       -0.029853307 -0.016923398 0.0319667 0.0684659
000250 db bb 59 3d 32 6b 43 3d 6e e9 c8 bd d6 64 b4 bd
       0.05315767 0.04770965 -0.09810148 -0.088082954
000260 a9 66 33 bc c2 47 d2 3c 09 77 83 bc 76 25 44 3d
       -0.010949769 0.025668982 -0.016047971 0.047887288
000270 bf 1d bf bc 5a 82 66 3d 4c 44 13 3d 09 6d 78 bc
       -0.023329614 0.056276657 0.035953805 -0.015162715
000280 b7 47 bf bc 6a 33 4b 3d 4f 34 a4 3c 89 b4 ca 3c
       -0.023349626 0.04960958 0.020044474 0.024744289
000290 f7 b6 b4 3d 2e cb c2 3d 16 5e d2 3c 1a 18 86 3d
       0.0882396 0.0951141 0.02567963 0.06547566
0002a0 3c 87 6f bc d5 56 3e bc 48 b1 0a bd 7c 1a a3 bd
       -0.014619645 -0.011617382 -0.033860475 -0.07964036
0002b0 78 01 2c bc 28 ef 6a bc cc 71 8e bd b8 62 41 bd
       -0.010498397 -0.014339246 -0.06955299 -0.047213286
0002c0 23 1f 1b 3d 2b 50 ba 3c c1 5a 16 bd 57 13 4f 3d
       0.03787149 0.022743305 -0.036707643 0.050555553
0002d0 2b 48 a3 bd 7c 7e c1 bc 95 92 a0 bc 4f 68 e9 3b
       -0.07972749 -0.023619883 -0.019601146 0.0071230303
0002e0 88 14 24 3d 3a be 78 bc d4 54 8a 3d 92 c6 90 bc
       0.040058643 -0.015182072 0.06754461 -0.01767281
0002f0 db e7 a0 bd 37 76 84 bd c5 ef 2c 3d a7 f5 96 bd
       -0.07856723 -0.0646786 0.04222085 -0.07371073
000300 9b 4a 86 bd 13 c3 66 3d 87 c2 2b bd c1 9e 36 bd
       -0.065571986 0.05633838 -0.041933563 -0.044584993
000310 bc c4 06 3d e6 2a 71 bd 90 bf 63 bd 92 19 90 3d
       0.032902464 -0.0588788 -0.05560261 0.07036127
000320 bd 8b 3f bd 7e e9 98 3d 2f cb cc 3d 1f 14 62 3d
       -0.046764124 0.0746641 0.09999692 0.05519497
000330 e6 0f d1 ba 08 a0 6b bd 6e 41 30 bd 27 4c 2c bd
       -0.0015950173 -0.057525665 -0.04303115 -0.042064812
000340 09 28 13 bc 4f 2f e1 3c a2 29 6c bd dd ed 5a bb
       -0.008981713 0.027488379 -0.05765689 -0.0033405938
000350 0b 6e 63 bc 37 95 57 3d 62 98 82 3d 14 85 8f bd
       -0.013881217 0.052632537 0.06376721 -0.070078045
000360 f7 82 3f 3d 1e 81 66 3d b3 c1 23 bd 5c 49 6e 3d
       0.046755757 0.05627548 -0.039979648 0.05817543
000370 c3 fb 63 bd 9e 2e 8b 3d 2d e6 0e b9 d9 2b 2f bd
       -0.05566002 0.06796001 -0.00013627922 -0.042766426
000380 b2 c2 71 3b c0 62 7a 3b 85 05 df 3b fb b2 40 3d
       0.003688973 0.0038205832 0.006806078 0.04704569
000390 70 30 a4 3d 57 d6 55 3b 63 3a c9 3d 17 f7 81 3d
       0.08017051 0.0032628977 0.098255895 0.06345957
0003a0 e1 6b 83 3b 53 74 94 3d b3 72 28 bd b1 42 df 3c
       0.004010663 0.072487496 -0.04112501 0.02725348
0003b0 01 15 c9 bc 6c 9b 52 bd 70 f7 ff 3c ac 34 a0 bd
       -0.024546148 -0.051417753 0.031245917 -0.07822546
0003c0 77 6b 00 3d 54 15 57 bd 71 7a 97 bd 96 7e d6 3c
       0.031352486 -0.052510574 -0.07396401 0.026183408
0003d0 b6 18 01 bd 48 5c 0e 3d d1 b8 98 3c 05 45 ac 3d
       -0.031517707 0.034755975 0.018642815 0.08411602
0003e0 8d 63 33 3d 64 81 ab 38 9c 44 6b 3d 4d b5 82 bd
       0.04379611 8.178016e-05 0.057438478 -0.06382237
0003f0 0e 90 76 3d c8 ca 3d 3a 42 03 01 bd 57 59 a1 3c
       0.060195975 0.00072399946 -0.031497248 0.01969592

decoder.2.bias f4 [16]
000000 5a 30 34 bd 2e 6a fa 3b e7 af 2f bc 8c 7f 33 3d
       -0.043991424 0.007642052 -0.010723091 0.04382281
000010 57 7c 98 bd de 65 0f bd 2d dd 1f bc a7 7e 90 3c
       -0.07445591 -0.035009257 -0.009757322 0.017638518
000020 76 bb 9f bc 0e 32 08 bd 65 e6 5a bc 18 92 cb 3d
       -0.019498568 -0.03325086 -0.013360594 0.099399745
000030 b4 71 e3 bc 12 bb 2e 3c 87 b8 9b bd 92 dc 7d 3d
       -0.027764179 0.010664718 -0.07603555 0.06197793

decoder.4.weight f4 [16, 3, 3, 3]
000000 68 8d 67 bd d7 8b d2 bc 93 47 f4 3d 6a e6 02 be
       -0.05653134 -0.025701446 0.11927714 -0.12783208
000010 2f bc 10 3e c0 f2 8e bd 16 06 3c be 3b 51 8a bd
       0.14134286 -0.06979895 -0.18361697 -0.06753775
000020 64 58 30 3e 4c a6 fe 3d 3f 05 31 3e 6d 0b 35 3e
       0.17221218 0.12434062 0.17287157 0.1768014
000030 a0 f3 30 bc 39 8e 7c bd 6e ea c3 bd 61 c5 ca 3d
       -0.010800272 -0.06165907 -0.09566198 0.09900928
000040 f2 63 25 be ea 3e 7f 3d d6 3f ef 3d ec f0 e9 bd
       -0.16151407 0.06231586 0.116820976 -0.11422905
000050 75 73 ba bd 90 8d 3a 3e eb bc 54 be 63 ad 37 be
       -0.09104053 0.18218064 -0.20775191 -0.17937236
000060 64 d5 00 bc c0 80 00 3e f8 e4 a4 bd e1 34 ca bd
       -0.007863376 0.12549114 -0.08051485 -0.09873367
000070 fb 36 99 bd 0e 1c 85 bd 8f 6e e7 3d d1 f5 60 3e
       -0.0748119 -0.06499492 0.11300384 0.21968772
000080 aa 31 d0 3d 8a af 04 3d 17 15 dc 3d f3 f8 22 3e
       0.10165723 0.03239397 0.1074621 0.15915279
000090 56 4b 2d 3e c1 5e 82 bd 0f 3e 86 bd 6b ba a5 bd
       0.1692327 -0.06365729 -0.065548055 -0.08092197
0000a0 a8 99 d1 bc a6 c8 f9 bd 98 59 75 3d be be ce 3c
       -0.025585964 -0.12196474 0.059899896 0.025237437
0000b0 8a 03 37 3e 35 02 09 be 15 ce 4e 3d 16 8d 10 3c
       0.17872444 -0.13379748 0.050489504 0.0088227
0000c0 1a 54 0e bd a1 8c 7b bd 39 78 11 be af 00 b2 3d
       -0.034748174 -0.06141341 -0.14206018 0.08691537
0000d0 3e 12 07 3e 17 05 b5 bd 7b cc b8 bb ab 94 7a 3d
       0.13190553 -0.088388614 -0.0056396103 0.061176937
0000e0 0c 58 04 3e dd 06 31 3d a8 94 1d 3d 0b 1e 31 3e
       0.12924212 0.043219436 0.038471848 0.17296617
0000f0 61 50 69 3e 84 a6 1e bd 70 0e 4c 3d f6 cd 27 3e
       0.22784568 -0.03873302 0.049818456 0.16387162
000100 5f 83 13 3d 0a a7 32 3e 80 0f 85 3d ff ee c8 bc
       0.036013957 0.17446533 0.06497097 -0.024528025
000110 5e ac 1d 3e 85 bf ca 3c 6f c9 a2 3d c9 85 d8 3d
       0.15397784 0.024749527 0.07948577 0.105723925
000120 67 a1 5a 3e f2 96 93 bd 63 28 50 3e c4 46 57 3e
       0.21350633 -0.07206525 0.20327906 0.21023089
000130 58 ab 36 3e 5f b2 4c bd 8b c3 64 3e 3d 83 f9 bd
       0.178388 -0.049974795 0.22340219 -0.12183235
000140 7b 9e 5c 3e 5b fa 30 3e ad 61 f2 bd 56 55 2d bd
       0.2154483 0.17283003 -0.118350364 -0.04231771
000150 00 7c e6 bd 40 f2 f1 3d 90 55 0e 3e 2a e0 18 3e
       -0.1125412 0.11813784 0.13899827 0.14929262
000160 ea c4 35 3e fc 3b b5 bd d4 43 f6 3d 82 e1 9c 3c
       0.17750898 -0.08849332 0.12024656 0.0191505
000170 b1 41 e4 bd b3 db e8 3d 32 90 e9 bd a9 f6 16 3d
       -0.11145342 0.11370029 -0.11404456 0.036856327
000180 8b a8 e1 bd c0 d2 7b 3d 90 9f 15 3e e1 e4 f9 3d
       -0.11018475 0.061480284 0.1461165 0.12201858
000190 16 42 59 3d 43 51 8b bd f9 56 5c bd 95 b1 50 3e
       0.05304154 -0.06802609 -0.05379388 0.20380242
0001a0 a0 6e 43 3e 6e b8 42 3e 02 46 1c bd a1 ab 91 bd
       0.19085169 0.19015667 -0.038152702 -0.07112814
0001b0 32 f3 6f 3d 5f 11 a7 bc 15 ca e8 bc 82 5d fc 3d
       0.05858154 -0.020394025 -0.028416673 0.12322523
0001c0 81 4d c7 bd c6 d6 93 bd fe bb b5 bd 98 77 2e 3c
       -0.097315796 -0.07218699 -0.08873747 0.010648631
0001d0 e2 45 75 3d fe a8 11 3e 02 41 3d 3e 34 64 21 be
       0.0598811 0.14224622 0.1848183 -0.1576088
0001e0 12 00 79 bc 2f 29 99 bd f0 e2 3f bd b6 a4 2f 3e
       -0.015197771 -0.07478558 -0.046847284 0.17152676
0001f0 85 5f ae bc 1c 0e 02 3e 6e 26 c2 bb f2 1d 86 3e
       -0.021285782 0.12700695 -0.0059249913 0.2619472
000200 e7 95 5b 3e cf 70 4b 3e 99 d7 d9 3d 70 91 32 3e
       0.21443902 0.19867252 0.10636825 0.17438293
000210 01 53 c6 3d 3c 98 10 3d 45 ba 09 3e db e6 ac 3d
       0.096838005 0.035301432 0.13449962 0.0844247
000220 62 e3 14 3e 78 f1 b1 bd 8b 2f 09 bb 0f 98 5b bd
       0.14539865 -0.08688635 -0.0020932879 -0.05361181
000230 93 41 a7 bd dc 12 0f 3e 11 7a 2f 3e 9d 58 32 3d
       -0.08166804 0.13972038 0.17136408 0.04354154
000240 3f 67 63 3c 4b 9f a5 3b bd 10 bb bd 98 c3 4f bd
       0.013879596 0.0050543896 -0.09134052 -0.050723642
000250 4e 8c a9 3c 12 1e fc bd 90 97 63 3e ad e5 6b bd
       0.020696785 -0.12310423 0.22225785 -0.057592083
000260 15 ad 27 be b6 13 1b bd ab 86 35 be ca 9c fe bd
       -0.1637462 -0.037860595 -0.17727153 -0.12432249
000270 5e 0a d7 3d 26 c8 39 be 9a 1e 6b 3d e1 db 4b 3d
       0.10500024 -0.18142757 0.05740223 0.04977024
000280 d8 a3 2c bd cf 31 19 3e 72 98 ee 3b 51 94 f4 3d
       -0.04214844 0.14960407 0.0072813565 0.119423516
000290 94 ff 20 bd 92 23 01 3e 5e 6e bd 3d 88 a8 83 3d
       -0.03930624 0.12611225 0.092495665 0.06428629
0002a0 a7 b8 2b 3e 2d 59 d4 3d 6e bb 4a bd 29 5f 1b 3e
       0.16769658 0.103685714 -0.049495153 0.1517302
0002b0 f3 fa cf 3b fa bc 62 bc ff 7a d7 bc 22 51 b3 bb
       0.006347054 -0.013839001 -0.026303766 -0.0054723183
0002c0 0c 96 11 3c cf 1a a5 3d 63 a8 43 be 19 51 6d bd
       0.008885872 0.08061754 -0.19107203 -0.05793867
0002d0 fa 87 5f 3d 13 7d 02 be 06 cd 26 3e bc d0 25 bc
       0.054573037 -0.12743025 0.16289148 -0.010120567
0002e0 fc a8 b7 bc 56 35 3b bd f2 8e 24 3c 70 fc 7d bd
       -0.022419445 -0.045705162 0.010043846 -0.06200832
0002f0 d2 48 d0 bd ea d8 cd 3d 06 1d ea bc e8 e1 d0 3b
       -0.10170139 0.10051139 -0.028578293 0.0063745864
000300 66 db 61 3d 82 84 f7 3d c0 61 16 be 76 21 12 3d
       0.055140875 0.12085821 -0.14685726 0.035676442
000310 cc 57 84 3d 4c 82 d4 bd 04 28 1d 3e 78 78 56 3e
       0.064620584 -0.10376415 0.15347296 0.20944393
000320 52 f8 ad 3d 32 7c 3f 3b a4 1e 63 3b 98 58 5a bd
       0.08494629 0.0029218313 0.0034655714 -0.053307146
000330 b3 8d 3c 3e e0 f5 6e bd 6d 2a 21 3c 85 64 d3 3b
       0.18413429 -0.058339953 0.009836775 0.006451192
000340 cc 6f 0b 3b 32 2d 41 3e 0c 76 5b 3e 45 43 87 bc
       0.0021276353 0.18864897 0.2143175 -0.016511569
000350 ae a1 8c 3c 75 b4 1e be 8c f3 39 bd 83 99 83 3d
       0.017166939 -0.15498526 -0.04539828 0.064257644
000360 c7 06 18 be 95 c8 23 3d f5 53 ca 3d db b6 45 3d
       -0.14846335 0.03998621 0.09879295 0.048270088
000370 9d e9 b9 bd fe 42 d3 bd e9 f1 53 bd 3e c9 e6 bd
       -0.09077761 -0.10315512 -0.051744375 -0.11268853
000380 63 d8 65 3d 8c ff 06 3c 1f 7f 44 be 31 e8 8b bd
       0.056114566 0.008239638 -0.19189118 -0.06831396
000390 84 cf ca 3d 02 92 f7 bd c6 85 39 bd 05 f4 b3 bc
       0.09902862 -0.12088396 -0.045293592 -0.021966944
0003a0 07 99 de 3d 26 c9 23 bd 72 30 02 be 36 1e 39 bd
       0.108690314 -0.039986752 -0.12713793 -0.045194827
0003b0 73 c4 44 bd 2e 12 11 be 1e 62 3a be ae 47 0d be
       -0.04803891 -0.14167091 -0.18201491 -0.13796875
0003c0 7b cc b3 3d a4 96 b2 bd 41 37 00 bc 7a 0d ba 3d
       0.08779236 -0.08720139 -0.007825674 0.09084602
0003d0 21 ab d2 3c fa 74 1d bd 1c 5f db 3d b4 e0 38 3e
       0.025716366 -0.038441636 0.107115 0.18054467
0003e0 38 b7 56 3e 37 b6 1f 39 2d 68 40 3e 75 fc 01 3e
       0.2096833 0.00015231302 0.1878974 0.12693961
0003f0 56 2d 2d 3e 05 49 78 bd 67 c4 54 bd 07 47 43 be
       0.16911826 -0.06061651 -0.051945116 -0.19070064

decoder.4.bias f4 [3]
000000 f3 5a 70 3c 8a 86 78 3d ee 49 55 3d
       0.0146701215 0.06067518 0.052072458
